…
    "  Dense(1, activation='sigmoid')\n",
    " \n",
    "])"
   ]
  },
  {
   "cell_type": "code",
   "execution_count": 15,
   "metadata": {
    "ExecuteTime": {
     "end_time": "2020-04-07T12:48:52.045962Z",
     "start_time": "2020-04-07T12:48:51.953810Z"
    }
   },
   "outputs": [
    {
     "name": "stdout",
     "output_type": "stream",
     "text": [
      "_________________________________________________________________\n",
      "Layer (type)                 Output Shape              Param #   \n",
      "=================================================================\n",
      "conv2d_23 (Conv2D)           (None, 224, 224, 16)      448       \n",
      "_________________________________________________________________\n",
      "max_pooling2d_21 (MaxPooling (None, 112, 112, 16)      0         \n",
      "_________________________________________________________________\n",
      "conv2d_24 (Conv2D)           (None, 112, 112, 32)      4640      \n",
      "_________________________________________________________________\n",
      "max_pooling2d_22 (MaxPooling (None, 56, 56, 32)        0         \n",
      "_________________________________________________________________\n",
      "dropout_21 (Dropout)         (None, 56, 56, 32)        0         \n",
      "_________________________________________________________________\n",
      "conv2d_25 (Conv2D)           (None, 56, 56, 64)        18496     \n",
      "_________________________________________________________________\n",
      "max_pooling2d_23 (MaxPooling (None, 28, 28, 64)        0         \n",
      "_________________________________________________________________\n",
      "dropout_22 (Dropout)         (None, 28, 28, 64)        0         \n",
      "_________________________________________________________________\n",
      "conv2d_26 (Conv2D)           (None, 28, 28, 128)       73856     \n",
      "_________________________________________________________________\n",
      "max_pooling2d_24 (MaxPooling (None, 14, 14, 128)       0         \n",
      "_________________________________________________________________\n",
      "dropout_23 (Dropout)         (None, 14, 14, 128)       0         \n",
      "_________________________________________________________________\n",
      "conv2d_27 (Conv2D)           (None, 12, 12, 128)       147584    \n",
      "_________________________________________________________________\n",
      "max_pooling2d_25 (MaxPooling (None, 6, 6, 128)         0         \n",
      "_________________________________________________________________\n",
      "dropout_24 (Dropout)         (None, 6, 6, 128)         0         \n",
      "_________________________________________________________________\n",
      "conv2d_28 (Conv2D)           (None, 4, 4, 256)         295168    \n",
      "_________________________________________________________________\n",
      "flatten_5 (Flatten)          (None, 4096)              0         \n",
      "_________________________________________________________________\n",
      "dense_9 (Dense)              (None, 256)               1048832   \n",
      "_________________________________________________________________\n",
      "dropout_25 (Dropout)         (None, 256)               0         \n",
      "_________________________________________________________________\n",
      "dense_10 (Dense)             (None, 1)                 257       \n",
      "=================================================================\n",
      "Total params: 1,589,281\n",
      "Trainable params: 1,589,281\n",
      "Non-trainable params: 0\n",
      "_________________________________________________________________\n"
     ]
    }
   ],
   "source": [
    "model.load_weights(os.path.join('..', 'models', 'B3modelweights.17-0.08.hdf5'))\n",
    "model.summary()"
…
